…
2019-07-16 10:58:46.895160: I tensorflow/core/common_runtime/gpu/gpu_device.cc:1001] 0:   N 
2019-07-16 10:58:46.895422: I tensorflow/core/common_runtime/gpu/gpu_device.cc:1115] Created TensorFlow device (/job:localhost/replica:0/task:0/device:GPU:0 with 7069 MB memory) -> physical GPU (device: 0, name: GeForce GTX 1070, pci bus id: 0000:01:00.0, compute capability: 6.1)
_________________________________________________________________
Layer (type)                 Output Shape              Param #   
=================================================================
image_array (Conv2D)         (None, 100, 100, 16)      800       
_________________________________________________________________
batch_normalization_1 (Batch (None, 100, 100, 16)      64        
_________________________________________________________________
conv2d_1 (Conv2D)            (None, 100, 100, 16)      12560     
_________________________________________________________________
batch_normalization_2 (Batch (None, 100, 100, 16)      64        
_________________________________________________________________
activation_1 (Activation)    (None, 100, 100, 16)      0         
_________________________________________________________________
average_pooling2d_1 (Average (None, 50, 50, 16)        0         
_________________________________________________________________
dropout_1 (Dropout)          (None, 50, 50, 16)        0         
_________________________________________________________________
conv2d_2 (Conv2D)            (None, 50, 50, 32)        12832     
_________________________________________________________________
batch_normalization_3 (Batch (None, 50, 50, 32)        128       
_________________________________________________________________
conv2d_3 (Conv2D)            (None, 50, 50, 32)        25632     
_________________________________________________________________
batch_normalization_4 (Batch (None, 50, 50, 32)        128       
_________________________________________________________________
activation_2 (Activation)    (None, 50, 50, 32)        0         
_________________________________________________________________
average_pooling2d_2 (Average (None, 50, 50, 32)        0         
_________________________________________________________________
dropout_2 (Dropout)          (None, 50, 50, 32)        0         
_________________________________________________________________
conv2d_4 (Conv2D)            (None, 50, 50, 64)        18496     
_________________________________________________________________
batch_normalization_5 (Batch (None, 50, 50, 64)        256       
_________________________________________________________________
conv2d_5 (Conv2D)            (None, 50, 50, 64)        36928     
_________________________________________________________________
batch_normalization_6 (Batch (None, 50, 50, 64)        256       
_________________________________________________________________
activation_3 (Activation)    (None, 50, 50, 64)        0         
_________________________________________________________________
average_pooling2d_3 (Average (None, 50, 50, 64)        0         
_________________________________________________________________
dropout_3 (Dropout)          (None, 50, 50, 64)        0         
_________________________________________________________________
conv2d_6 (Conv2D)            (None, 50, 50, 128)       73856     
_________________________________________________________________
batch_normalization_7 (Batch (None, 50, 50, 128)       512       
_________________________________________________________________
conv2d_7 (Conv2D)            (None, 50, 50, 128)       147584    
_________________________________________________________________
batch_normalization_8 (Batch (None, 50, 50, 128)       512       
_________________________________________________________________
activation_4 (Activation)    (None, 50, 50, 128)       0         
_________________________________________________________________
average_pooling2d_4 (Average (None, 25, 25, 128)       0         
_________________________________________________________________
dropout_4 (Dropout)          (None, 25, 25, 128)       0         
_________________________________________________________________
conv2d_8 (Conv2D)            (None, 25, 25, 256)       295168    
_________________________________________________________________
batch_normalization_9 (Batch (None, 25, 25, 256)       1024      
_________________________________________________________________
conv2d_9 (Conv2D)            (None, 25, 25, 8)         18440     
_________________________________________________________________
global_average_pooling2d_1 ( (None, 8)                 0         
_________________________________________________________________
predictions (Activation)     (None, 8)                 0         
=================================================================
Total params: 645,240
Trainable params: 643,768
Non-trainable params: 1,472
_________________________________________________________________
(592, 8)
----------------------
predicted: 0 true value: [0]
predicted: 0 true value: [0]
predicted: 0 true value: [0]
predicted: 0 true value: [0]
predicted: 0 true value: [0]
predicted: 0 true value: [0]
…
